models/policy_1.pt (torch, 78677 bytes, 8 tensors)

weight f4 [128, 48]
000000 c7 cd 79 be 78 f5 6d 3a be 4c 9b 3d 6a b9 d2 3d
       -0.24394904 0.000907741 0.07582997 0.10289271
000010 7e c0 d3 bb d4 d4 3f bf fb a8 87 be d4 2e 72 bf
       -0.006462156 -0.74934125 -0.2649611 -0.94602704
000020 17 2b 3d 3e 24 36 90 3d 17 3d ca bc 17 4e 58 3f
       0.18473469 0.070415765 -0.024687333 0.84494156
000030 02 30 c6 bd 1b a2 92 bd 22 28 23 3f b9 da 33 be
       -0.096771255 -0.071598254 0.6373311 -0.17563905
000040 42 98 2a 3f c9 6d 5e be 9d ba 9f 3e 95 a5 90 3e
       0.66638577 -0.21721567 0.31197062 0.2825133
000050 55 2d 4e 3e 73 cc 58 3f 0d 30 f9 3b df 69 47 3e
       0.2013448 0.84686965 0.007604605 0.1947398
000060 f5 53 99 3e f1 71 79 3e 95 c3 92 3e b2 1a 68 3d
       0.29946867 0.24359871 0.28664842 0.056666084
000070 b7 9a 8a be 5e e9 40 be 66 8a 09 be 7d cc ea bd
       -0.27071163 -0.18839023 -0.13431701 -0.11464784
000080 4a ab 88 3e ef 8d d6 3c 84 7a b3 3e e2 eb ae 3e
       0.26693183 0.026190726 0.3505441 0.3416434
000090 e0 ed d2 3d 02 45 01 3e 60 ad a3 3d 86 ed 27 3d
       0.10299277 0.1262398 0.07992053 0.040998004
0000a0 8a 01 9a 3b c3 35 47 3e b9 9a e9 bd 4e 14 ab bd
       0.0046998905 0.19454102 -0.11406464 -0.08353482
0000b0 8b 64 08 3c 07 0d 42 3d ed 3c 09 3d d2 48 14 bd
       0.008324753 0.047375705 0.03350537 -0.03620226
0000c0 8e 43 41 be 3b 72 6e 3c ce f2 d3 3e 3c d4 a1 be
       -0.18873426 0.014553602 0.41396183 -0.31607234
0000d0 49 ab d5 3e 6f 9c 8b bd 98 4d a0 3f 20 63 15 be
       0.41732243 -0.06816947 1.252368 -0.14588594
0000e0 ed 2d b9 3d b4 36 95 3e 7f 58 82 bd 24 0c 74 be
       0.09041963 0.29143298 -0.063645355 -0.23832756
0000f0 00 79 a2 be 43 91 de 3d ae 6a 42 bf 22 c9 6e bf
       -0.3173294 0.1086755 -0.7594403 -0.93275654
000100 0b 77 86 be 0a cb 9c 3e 6d 1c b9 be d6 74 dd 3e
       -0.26262698 0.30623657 -0.361545 0.432532
000110 6f fe 17 3f 15 0c e5 3e 67 2e 9f be f4 38 7f bd
       0.5937261 0.4473578 -0.3109009 -0.062310174
000120 59 95 7d be 0e 50 f8 3e f7 78 15 bd 08 d7 b0 3d
       -0.24764003 0.48498577 -0.036492314 0.08634764
000130 6b 51 dd be 63 e0 89 3d 60 62 8a be c0 4a 01 be
       -0.4322618 0.067322515 -0.2702818 -0.12626171
000140 0c 3a 8b be ff 1b 28 bf 3f c4 c1 3d c9 8b 30 3d
       -0.27192724 -0.6566772 0.09461259 0.04310206
000150 f3 13 89 3b e0 10 9c bc 94 a8 24 3e 8d 5c 69 be
       0.0041832863 -0.019051015 0.16079932 -0.22789212
000160 ef 15 1e bd f4 31 fb bd bd d3 1c bd a7 73 f9 3d
       -0.038595136 -0.12265387 -0.038287867 0.12180262
000170 4c 0d dd 3a 73 bf c1 bd f9 3e 1e be 0d 95 82 3d
       0.0016864925 -0.09460344 -0.1545371 0.063760854
000180 e9 70 4a 3e e3 62 bf bb aa 70 15 be a9 a1 b2 3e
       0.19769634 -0.0058406456 -0.14593759 0.34888962
000190 db 22 34 3e a3 78 9f bd 57 48 a2 be 6e b9 bd bf
       0.17591421 -0.077866815 -0.31695816 -1.4822214
0001a0 50 11 9c bb b9 34 a6 be 0b 7f 33 3d 00 bd a5 be
       -0.004762806 -0.324621 0.04382233 -0.32370758
0001b0 d6 9b 84 3d 82 71 b9 3e 95 fb 04 3f 68 9a 28 3f
       0.06475036 0.36219412 0.51946384 0.65860605
0001c0 b7 9c 2b 3d 90 6a ae 3d f9 25 21 be 8e 9e 91 3d
       0.0418975 0.08516419 -0.15737142 0.0711032
0001d0 f9 9b 14 3e be c2 1e bf 94 3e ce 3c d6 d7 fd 3d
       0.14512624 -0.62015903 0.025176324 0.12394683
0001e0 75 27 69 be e5 ef 6a 3e ed bd 39 3e b4 58 92 3e
       -0.22768958 0.22943075 0.18138857 0.285833
0001f0 b3 48 82 be 12 da 85 3e 6d ad 04 3f b5 b0 30 bc
       -0.2544609 0.26142937 0.51827127 -0.010784318
000200 33 61 8e 3e 84 8a a4 3d 85 a2 29 be 97 9d 8b 3e
       0.27808532 0.08034232 -0.16565903 0.2726867
000210 4a c8 15 bd 8b f8 39 bd da d6 b2 bd 1b a5 d0 3c
       -0.036567964 -0.045403045 -0.08732386 0.025469353
000220 25 e6 e6 3d 28 26 1b be 89 b6 87 bd 88 e3 91 3d
       0.11274365 -0.15151274 -0.06626613 0.07123476
000230 38 91 a8 bc 77 3b a3 b9 b5 a7 0b 3e c6 d8 a8 3d
       -0.020577058 -0.00031134087 0.13638194 0.08244471
000240 ca 03 09 bf 3e 25 10 be df 33 f6 be 1d 2a 9d 3d
       -0.53521407 -0.14076707 -0.4808645 0.07674048
000250 c7 0a 4a be 33 17 d1 bc d6 8b 40 bf 37 81 3e bd
       -0.19730674 -0.025523758 -0.7521337 -0.046509948
000260 04 5f 23 3e c8 db 0a 3f 76 c2 3f be 45 7c 69 3f
       0.15954214 0.5424161 -0.18726525 0.91205245
000270 66 8e e8 3d c9 d6 2d bf 4a 01 9a 3e 07 e6 01 be
       0.11355285 -0.6790586 0.30079108 -0.12685405
000280 5e a2 75 bc a0 e6 cb 3d a4 59 30 be d5 fe 7c 3e
       -0.014992325 0.099560976 -0.17221695 0.24706586
000290 93 55 3a 3e a7 0e e0 3d ee 54 bd bd 91 c4 d1 3e
       0.18196706 0.10940295 -0.09244715 0.4097028
0002a0 99 0c f6 be 1c 10 aa be 41 99 66 3c 0f 52 3d 3e
       -0.48056486 -0.33215415 0.0140746245 0.18488334
0002b0 95 5f 89 bd 81 26 af bd ba 24 96 be af d3 03 3d
       -0.06707684 -0.08552266 -0.29324895 0.0321843
0002c0 95 37 c0 bc 93 57 ee 3e f1 e5 f4 be 53 d5 ae bc
       -0.023464004 0.4655119 -0.4783168 -0.021341955
0002d0 d4 6b 00 bd ac 19 86 3d 9d 2c c8 be e7 91 01 3e
       -0.031352833 0.06547865 -0.39096537 0.12653314
0002e0 d7 65 0d bd 93 9b 78 bd 9d d9 f4 bd cb 26 a4 3d
       -0.03452095 -0.060695242 -0.11955569 0.08015212
0002f0 bd 6b 22 be 7f 55 82 3e a7 9e d5 bd 97 9d 13 be
       -0.15861411 0.25455853 -0.10430651 -0.14415585
000300 01 7e e9 bc 39 22 34 3d c0 8b 03 3e 94 35 34 3d
       -0.028502466 0.04397795 0.12846279 0.04399641
000310 57 91 73 be c4 08 c5 bd b8 12 1a bf eb 27 a2 bd
       -0.23785912 -0.096208125 -0.6018481 -0.0791777
000320 97 a4 7b 3d 5e 22 82 bd 1f 00 3b bd 35 75 36 bf
       0.061436262 -0.06354211 -0.045654412 -0.71272594
000330 3a 68 de 3e 90 a6 2a 3f fb ad 00 3f d6 c5 26 bf
       0.43438894 0.66660404 0.50265473 -0.65145624
000340 ee a6 21 bf b4 03 ae 3e c5 0a 4e 3f 9d c7 84 bf
       -0.6314534 0.339872 0.80485183 -1.0373417
000350 ce b7 cc 3e 46 d9 9a 3e 6d c3 1c bd 9f c7 14 be
       0.39983982 0.3024389 -0.03827231 -0.14529274
000360 41 f5 32 3e 89 f0 90 3e 97 fe 22 be d2 c3 94 be
       0.1747637 0.28308514 -0.15917431 -0.2905565
000370 7c 7d ea be 19 1e 6c 3d 92 01 e6 bd 5d ac 57 be
       -0.45798862 0.05764589 -0.11230768 -0.21061845
000380 28 e8 3f ba 57 72 38 3d 64 47 d2 be 35 ce 47 be
       -0.0007320666 0.045030918 -0.41070092 -0.19512255
000390 82 a7 e7 3b a1 41 53 bd d9 42 cb 3d 28 bb 5b be
       0.007069529 -0.05157626 0.099248596 -0.21458113
0003a0 ce 53 33 be fa 48 77 bd a6 55 03 3d 44 b6 56 bd
       -0.17512438 -0.06037233 0.032064103 -0.052419916
0003b0 6e 4f e8 be be 33 19 3e 22 89 81 bd bf b7 67 3b
       -0.453731 0.14961144 -0.06324984 0.0035357324
0003c0 6e 31 fe 3d dd 0c 4d be e6 6a b4 3d e9 19 4c 3c
       0.12411772 -0.20024438 0.08809452 0.012457349
0003d0 a7 93 3c 3f 36 f0 1c bd 0b 69 67 be 30 a2 0d 3f
       0.736628 -0.03831502 -0.22598664 0.55325603
0003e0 1d 25 d7 3d a8 1a 37 be c7 e3 e0 bc 6d b7 6b 3d
       0.10505126 -0.17881262 -0.027452363 0.057547975
0003f0 c1 f2 c0 3e 56 25 85 3e b4 1d 6b bd ee 76 b9 bd
       0.37685207 0.26005048 -0.057401374 -0.09055887

bias f4 [128]
000000 dc 30 d2 3c db c5 b2 bd 74 f7 44 bd a0 fe 8c be
       0.025658064 -0.08729144 -0.048087552 -0.27538013
000010 e8 26 6c be 06 a1 90 be eb b0 ce bd 08 2d a5 be
       -0.23061717 -0.2824785 -0.10092338 -0.3226092
000020 5c 00 5a be 34 50 1c be fd 41 93 be 3a fd 8e 3d
       -0.212892 -0.1526497 -0.28761283 0.06981893
000030 8f 87 eb bd 9a 95 33 3e 9a a2 94 3d ab df 01 be
       -0.11500465 0.17537537 0.07257576 -0.12682979
000040 e3 07 42 3d 10 0e 00 be 8b b0 7f be 4e 24 1d 3e
       0.047370803 -0.12505364 -0.2496969 0.1534588
000050 34 7c 38 3c 9f 75 54 be 42 49 6b be fc 50 65 3d
       0.011260081 -0.20747994 -0.22977164 0.055985436
000060 40 67 16 3e e3 13 40 3d df 81 4f be 25 72 fe bd
       0.14687824 0.046893965 -0.20264386 -0.12424115
000070 c4 81 46 be d6 f8 ae bd 0e 1f dd bd cf 05 19 be
       -0.19385439 -0.085435554 -0.10796939 -0.14943622
000080 f7 4b de 3d b3 a9 a9 3c ba 5e 3f be 95 fc d9 3d
       0.10854333 0.020710802 -0.18688479 0.10643879
000090 70 91 bb bc c5 9f 8f 3d fd c2 04 3c 26 ed 8c be
       -0.022896498 0.070128955 0.008103129 -0.2752468
0000a0 5c 59 14 bd 15 ec d6 bd 30 be c3 bd f0 a1 73 3d
       -0.036218032 -0.10494248 -0.0955776 0.059480608
0000b0 ed d1 55 3d 6a f5 57 be 4e 96 18 bd 03 c2 be bd
       0.052202154 -0.21089712 -0.037252717 -0.093143485
0000c0 af 30 93 bd 0c 13 19 3d 29 15 3d 3d 7c 71 25 3d
       -0.0718702 0.03737168 0.046162758 0.04039143
0000d0 13 a7 52 3d 9e 90 9c 3b 83 fc f0 3c c3 44 63 bd
       0.051428866 0.004777982 0.029417282 -0.0554855
0000e0 96 c4 82 be 84 4b 68 be 94 74 6f 3d 6c 1a a8 3d
       -0.25540608 -0.22685057 0.058460787 0.082081646
0000f0 2f 8b 0c be ae 2e a8 3d 2f f6 20 be cc 11 94 3d
       -0.1372497 0.082120284 -0.15718912 0.07229957
000100 d6 51 f0 3b 3d e1 10 be f9 ba 1e be 63 ce 46 be
       0.0073339744 -0.14148422 -0.15501012 -0.19414668
000110 c7 97 b2 be b4 1c a4 bd 99 8f 1c 3d bf af b6 3d
       -0.34881422 -0.08013287 0.038222883 0.0892024
000120 9c 8a 28 be ab 7d 06 3d 34 3b 15 be c8 77 73 3d
       -0.16459125 0.03283469 -0.14573365 0.059440404
000130 4b e3 56 3d 5c 4f c5 ba 9e 83 42 be de 07 4d bc
       0.052462857 -0.0015053558 -0.1899552 -0.012514083
000140 ce e7 98 3c 33 99 85 be e2 e8 90 bc 9c 09 c3 bd
       0.01866522 -0.26093444 -0.017689172 -0.09523317
000150 3d 12 58 be 07 2c 27 be 1d ba 5b 3d af 0a 3f be
       -0.21100707 -0.16325389 0.05364429 -0.18656419
000160 3f b8 b1 bd 34 cf 6c be ce b2 44 be bc 01 10 be
       -0.0867772 -0.23125917 -0.19208834 -0.14063162
000170 98 62 56 bd 2a 9a a5 be 64 6b 88 bd 78 cf dd bc
       -0.05234012 -0.3234418 -0.06661108 -0.027076468
000180 ca cc 8d be e8 64 96 3d b4 e5 19 be a9 54 e3 be
       -0.27695304 0.07343465 -0.15029031 -0.44400528
000190 2d 2d cb 3d ad 76 49 bd 82 d2 b7 bd b9 c6 8c bd
       0.09920726 -0.049185444 -0.08975698 -0.06873841
0001a0 97 a4 dc bd dd 78 c3 bd c0 b1 c0 3d 35 3b 4d be
       -0.107735805 -0.09544537 0.09408903 -0.20042117
0001b0 d4 7b f1 bd 33 d1 f1 bd e7 e2 7d be 9f c9 da 3d
       -0.117911965 -0.1180748 -0.24793588 0.106829874
0001c0 78 04 a6 3d 58 11 e4 3d 7b 16 00 be 23 6f 8e be
       0.08106321 0.111361206 -0.12508576 -0.27819166
0001d0 55 aa 35 be 7f 34 25 be 2e e2 22 bc 8c e7 0f 3e
       -0.17740758 -0.16133307 -0.009941621 0.14053172
0001e0 e7 f7 a0 3d 86 4a 1f 3e 82 e5 3e 3e fa 21 b8 bd
       0.078597836 0.15555772 0.18642238 -0.089908555
0001f0 fb ca 92 be 74 f7 5a be d1 00 06 be 5d ed 88 bd
       -0.28670487 -0.21383458 -0.13086249 -0.066858985

weight f4 [64, 128]
000000 80 1f 4f bc ce 0b 6f 3e a5 da 14 be 80 b4 9a 3e
       -0.0126417875 0.23344347 -0.14536531 0.30215836
000010 fe 75 7a bd 7a 66 c3 3e 3c 40 24 bd c1 23 3a 3d
       -0.061147682 0.3816412 -0.04010032 0.045444254
000020 95 ab af be c1 67 df 3d 9a f6 23 bd 77 40 48 3d
       -0.34310594 0.10908461 -0.0400301 0.048889603
000030 27 6b 2e 3d 4c 82 a6 bd a8 e4 22 3d 0b 5f 54 bd
       0.042582657 -0.08130321 0.039768845 -0.051848453
000040 74 2c 82 3e 4b f5 46 be 65 f5 82 bd 1f b9 4f be
       0.2542454 -0.1942951 -0.063944615 -0.20285462
000050 e4 13 1f be dd dd 9f 3d 87 f4 e7 bd b5 92 00 3d
       -0.15534931 0.07805989 -0.11325937 0.03138991
000060 d0 3d 08 3f 60 0d 39 3e d6 9f 0d bd 41 d8 31 be
       0.5321932 0.18071508 -0.03457626 -0.1736765
000070 bb 83 a7 bd ee 5f b6 be d0 bf 1d 38 50 a6 95 3d
       -0.081794225 -0.35620064 3.7610356e-05 0.07307112
000080 4b 3c 1f bb 4d 26 84 be fc 3d fa bd 2d 6e 29 3e
       -0.0024297412 -0.2581047 -0.12218854 0.16545935
000090 e3 14 01 3e a7 05 a7 bd 3d 13 c6 bd 8f b4 6c 3e
       0.12605624 -0.08155375 -0.09671638 0.23115753
0000a0 af d4 82 3d af 6b 09 3e 6e 39 a0 3d 29 20 56 be
       0.063882224 0.13419984 0.07823454 -0.20910706
0000b0 81 2b a9 3e f5 8c 1b be c7 71 30 3a ba c3 9c 3c
       0.33041003 -0.1519049 0.00067308213 0.019136298
0000c0 d4 eb 34 be e5 6a af bb 85 aa 85 3a 15 8e 12 3e
       -0.17668086 -0.005353319 0.0010197914 0.14312012
0000d0 bb 20 81 3d 79 1c e8 bc 4f e7 97 bc 03 2b 03 bf
       0.06305071 -0.02833389 -0.018542914 -0.51237506
0000e0 3e 0b 83 bb af 45 8e bd e5 58 4b 3e 42 09 91 3c
       -0.003999143 -0.06946885 0.1985813 0.01770461
0000f0 af 82 30 3d d1 2a 46 be f5 4d 28 be 74 21 35 be
       0.04309338 -0.1935227 -0.16435988 -0.17688543
000100 7a 1a f8 bd a6 17 26 be 0b 4f 7a be 80 c5 d1 bd
       -0.12114425 -0.16219959 -0.24444215 -0.10242748
000110 41 68 2f 3e 8d 36 4f bd 40 fb 01 3d c5 f8 0f be
       0.17129613 -0.050589133 0.03173375 -0.14059742
000120 3c 58 1d 3e cf cc 06 3c 11 d9 ac bd 51 3f 62 3e
       0.1536569 0.008227541 -0.0843984 0.22094466
000130 26 00 0c be 33 1a f3 3d e3 00 00 be 42 a5 e8 bc
       -0.13671932 0.118702315 -0.12500338 -0.028399114
000140 be b0 b4 3d 97 59 c4 3d fc ac ce 3c 00 59 58 3e
       0.088227734 0.095874004 0.02522897 0.21127701
000150 17 47 00 be ed 20 d1 3d 71 a1 eb 3c 03 b0 7c 3e
       -0.12527119 0.10211358 0.028763505 0.24676518
000160 eb cf a4 3c cb a1 b2 3d c7 54 ae 3e 67 be ba be
       0.020118674 0.08722266 0.34049055 -0.3647339
000170 00 36 d0 bd 58 c3 83 3e 98 b6 1a bd 49 3d eb 3d
       -0.1016655 0.25734973 -0.03777179 0.114862986
000180 bd 19 37 3e 12 c4 1b bb 0a 66 14 be 0a 08 6d be
       0.17880912 -0.002376799 -0.1449205 -0.23147598
000190 a7 3b b3 bd db 50 2f 3e 60 65 98 bc ac 8f 39 3e
       -0.08751612 0.17120688 -0.018603027 0.18121213
0001a0 9b fe 49 be 4d e3 1c bd d6 c7 19 3e 80 52 7f bd
       -0.1972603 -0.03830271 0.15017638 -0.062334538
0001b0 08 d3 87 3d e8 5a f1 3d 6f 5c c4 3d f5 c4 b6 3d
       0.06632048 0.11784917 0.09587943 0.08924285
0001c0 ad 96 1b be 94 9a c4 bd a7 82 c3 bd e5 f0 4c bd
       -0.15194197 -0.09599796 -0.09546404 -0.050034422
0001d0 21 a7 c4 bd 23 4c 39 3d f7 09 e4 3d 5f 5f 53 3e
       -0.0960219 0.045238625 0.11134713 0.2064185
0001e0 48 3a db 3e 49 33 d8 bd 6c d9 5d 3e ee 89 89 bc
       0.42817903 -0.10556657 0.21664971 -0.016789403
0001f0 3c 0f 7e bb 67 89 1c 3e f7 45 80 bd 2b ba 09 3e
       -0.0038766405 0.1528679 -0.06263345 0.13449924
000200 35 5a f2 3d a2 74 b7 bd ad 5e 99 3c c2 bf 62 3e
       0.11833612 -0.08957793 0.018721903 0.22143462
000210 ee 7c be be ac f9 90 be 64 c6 b3 3e 08 9c 76 be
       -0.3720469 -0.28315485 0.35112298 -0.24082959
000220 65 64 b2 be b4 90 bd 3d 96 a7 7e be 7c ec 99 bd
       -0.3484222 0.092561156 -0.24868616 -0.07515809
000230 e3 f0 e5 3d 27 3c 94 be 52 43 e7 3d 46 59 28 3e
       0.11227586 -0.28952143 0.11292137 0.16440305
000240 9c f6 25 bd 34 ea 48 3e ea 71 68 3e f8 70 22 bf
       -0.04051839 0.19620591 0.22699705 -0.63453627
000250 38 bf 7f be 0c a0 05 3d 1e e4 a5 3e 92 3d fc 3d
       -0.24975288 0.032623336 0.32400602 0.12316431
000260 4f 69 00 3e 22 e8 b2 3d 85 27 4f 3e 3a 29 3a 3e
       0.12540172 0.08735682 0.20229919 0.18179789
000270 cb aa 19 be af 35 87 3c 4e 22 95 3d 98 94 1a bd
       -0.15006559 0.01650509 0.07281934 -0.037739366
000280 88 b5 b9 3e 17 f0 55 be d5 9b e4 bd fd 93 1d be
       0.3627131 -0.20892368 -0.11162535 -0.15388484
000290 05 c5 c3 3c 7c 06 fe bd 28 e3 66 3c a7 45 1f bd
       0.023897657 -0.124035805 0.014092244 -0.038884785
0002a0 9e 35 b5 bd 80 f9 9c 3e 15 96 47 3d 3f 31 0e 3e
       -0.08848117 0.30659103 0.048727114 0.13885973
0002b0 27 bc 48 bd ae 6e 0c be c2 5b ea be e9 ae 72 3e
       -0.04900756 -0.13714096 -0.4577313 0.23699535
0002c0 d4 1c 8a 3e 09 c7 00 3a eb e8 e3 be 2f 2d 0d bd
       0.2697512 0.0004912471 -0.4451364 -0.03446692
0002d0 d1 6d 88 be 5d db 24 be 96 d5 89 bd 20 b7 aa 3e
       -0.26646283 -0.16099305 -0.067301914 0.33342838
0002e0 d1 f9 9b be 8a c4 d1 bc 05 4b 86 3c 75 b2 e5 3d
       -0.30464032 -0.025606412 0.016393194 0.112156786
0002f0 a0 28 80 bc 00 89 cb bc 5a 16 0f 3e b3 b5 1d 3e
       -0.015644372 -0.0248456 0.1397337 0.15401344
000300 1b cd af 3c 19 7e 73 3e aa 15 93 3e e9 4a f1 3c
       0.021460107 0.23778571 0.28727466 0.029454665
000310 66 57 b6 3e 44 10 b4 be 88 df 27 3d 03 91 45 3e
       0.35613555 -0.3516866 0.04098466 0.19293599
000320 36 96 26 bd e1 1f e8 bd 8d 30 0c bd 6b 9b 44 bd
       -0.040670596 -0.113342054 -0.03422599 -0.04799978
000330 d9 04 0e be 18 43 53 3e 1a d3 17 3e 36 51 36 3e
       -0.13869037 0.20631063 0.14826623 0.17804417
000340 d6 93 82 3e 16 09 4e be 23 d7 ff 3d 0a 95 f7 be
       0.25503415 -0.20120654 0.12492206 -0.48355895
000350 38 7d 56 3e a8 8b 85 3e 0d 3e ad 3d a7 de c7 3d
       0.20946205 0.26083112 0.08459101 0.097592644
000360 48 ec 19 3e 7e 4a 5b be e5 8a 97 be a2 63 8c 3e
       0.1503154 -0.21415135 -0.29598156 0.27419764
000370 c5 b5 0c be 66 d9 65 3d a3 31 97 bd d9 88 f2 bd
       -0.13741215 0.05611553 -0.07382514 -0.11842508
000380 23 aa 5c be e7 f9 c1 be 03 71 ba be f1 75 19 be
       -0.21549277 -0.37885973 -0.36414346 -0.14986397
000390 55 7e 68 bd 6f 2b c5 be f5 5e 5e 3d 21 31 fb 3e
       -0.056761105 -0.385097 0.054289777 0.4906092
0003a0 50 a7 91 3e 83 41 63 3e e6 cd f9 bd 7d f8 76 be
       0.28447962 0.2219296 -0.12197475 -0.24118228
0003b0 f8 14 13 3e 30 74 5a bd 9e 48 07 be c8 2c 6f be
       0.14363468 -0.05333346 -0.13211295 -0.23356926
0003c0 66 a7 7d 3e fe b2 8b 3e 42 30 7e be 16 91 ba 3d
       0.24770889 0.27284998 -0.24823096 0.09109704
0003d0 b6 a1 35 be 85 01 14 3f 44 44 aa 3e 47 eb 05 be
       -0.17737469 0.5781482 0.33255208 -0.13078032
0003e0 8f 3a ed 3e f3 40 ad bd b4 5c 37 bd d0 38 d4 3e
       0.4633374 -0.08459654 -0.044766143 0.41449594
0003f0 1f de 63 3d 2d 79 6e be f0 89 b9 be 1f 99 51 be
       0.055631753 -0.23288412 -0.3623805 -0.20468567

bias f4 [64]
000000 2d 1b cc 3c 95 b8 91 be b8 05 99 3d c2 f3 76 be
       0.024915302 -0.28461137 0.07471794 -0.24116424
000010 4f 87 5b be 56 cc bb bd 43 6f 09 be 25 1d 2d be
       -0.21438335 -0.09169833 -0.13421349 -0.16905649
000020 c9 13 76 be 05 2b 86 be 67 cb 27 be ec 31 38 bd
       -0.24030985 -0.26204696 -0.16386186 -0.044969484
000030 8d 07 a3 bd 1b ca ee bd e1 51 88 be 5c 26 e9 bd
       -0.079604246 -0.11659642 -0.2662497 -0.113842696
000040 45 5c 5a be d7 68 49 be cc a0 c4 bd bd 8f 75 be
       -0.2132426 -0.196689 -0.09600982 -0.23980613
000050 7b e0 cc bd b7 a7 a4 bb d1 02 f0 bd 78 74 30 be
       -0.10003754 -0.005024876 -0.11719287 -0.1723193
000060 77 21 99 be 66 fa 04 bd 56 ed bf be 36 8c 31 be
       -0.29908344 -0.03246536 -0.3748576 -0.17338642
000070 6d 5e 2d be 91 9d 31 be ef 74 bc be f5 90 63 be
       -0.16930552 -0.17345263 -0.36807963 -0.22223265
000080 bc 8d 9b be e7 53 82 be f3 a2 c7 bd 44 33 b4 3c
       -0.30381572 -0.25454637 -0.09747877 0.021997102
000090 f0 b6 86 be 7f df c5 bd 63 2e 25 bd 75 ae d7 bd
       -0.26311445 -0.09661769 -0.04032744 -0.10531322
0000a0 61 3e 77 be 2a c1 1c bd 35 06 97 bd 5a 21 3e be
       -0.2414489 -0.038270153 -0.07374231 -0.1856741
0000b0 91 db ef bd 9a 93 df bd af ee aa 3b 0a 91 38 be
       -0.11711801 -0.10916825 0.0052164416 -0.18024078
0000c0 22 83 6d bc 3f c1 52 bd 36 e1 81 bd 48 a9 2e be
       -0.0144965965 -0.051453825 -0.06341784 -0.17056763
0000d0 be 91 60 be 0a 7c 44 be 74 0a ba bd ed f1 a9 bd
       -0.21930596 -0.19187942 -0.09084025 -0.08298097
0000e0 38 23 fb bd c3 91 72 be 3d 55 db bd 9e c3 1b be
       -0.12262577 -0.23688416 -0.10709617 -0.15211341
0000f0 c7 73 53 be cc 11 2d be e5 46 50 3d 9e 5a 0c be
       -0.20649634 -0.1690132 0.05084886 -0.13706443

weight f4 [32, 64]
000000 78 f6 d0 bd ee d0 c2 3d 89 c0 24 be fc 62 8e 3b
       -0.1020326 0.095125064 -0.16089071 0.004345296
000010 06 2a 16 3d c9 14 85 3d 10 c0 f9 3d 50 45 3b 3e
       0.03666117 0.06498105 0.12194836 0.1828816
000020 2a 85 63 bd 30 37 57 3d 84 7d aa 3d f1 17 d4 3d
       -0.055546917 0.052542865 0.083247215 0.10356129
000030 93 0e be be e5 0a 0f be 55 27 76 be a3 85 28 bd
       -0.37120494 -0.13969 -0.24038441 -0.04114307
000040 e4 52 44 bd 73 c6 a1 bb ff 75 2f 3e a0 8b 9e 3d
       -0.047930613 -0.004936987 0.17134856 0.07741475
000050 ac b5 f7 bc 8d 70 1e 3e 76 a5 f8 3d 84 ed 89 3b
       -0.030237995 0.15472622 0.12140934 0.0042092223
000060 e9 06 48 3d a0 ff 2b be 98 c0 7a 3e e8 aa 08 3d
       0.048834715 -0.16796732 0.24487531 0.033366114
000070 0d fc 6e bd 6d 01 40 3d 6f 5f 05 3e e9 51 c9 3c
       -0.058345843 0.04687636 0.13024686 0.02457519
000080 97 8b 8e 3e 94 be 2a be f8 3d 73 be a0 80 82 bb
       0.27840874 -0.16674262 -0.23754108 -0.0039826185
000090 f4 9b 2f 3e 04 42 7a 3c 61 b5 3d 3d a3 e6 5d be
       0.17149335 0.015274528 0.046315555 -0.21670012
0000a0 4c 76 83 3e 80 1e bb bd df fc cb be 08 3c 5a 3b
       0.2567619 -0.09136677 -0.39841363 0.0033299942
0000b0 4d e4 e2 bc b3 0c ce 3d aa a3 a3 be ff 99 0f be
       -0.027696753 0.10061016 -0.31960803 -0.14023589
0000c0 f9 19 09 3e f0 bb 84 3d f8 ce 85 be d5 ba 17 3e
       0.13388814 0.06481159 -0.26134467 0.14817365
0000d0 01 68 bd 3d d8 27 97 bd de 20 18 3c a7 58 b5 3e
       0.09248353 -0.073806465 0.00928518 0.354192
0000e0 cd 5b 38 bd b0 3e 3b 3d 55 f3 92 bb b7 3a 3f 3d
       -0.045009423 0.04571408 -0.004484574 0.046686854
0000f0 65 47 fa 3d 41 eb ac bd 54 d8 5a be 5d 5d 95 be
       0.12220649 -0.084433086 -0.21371585 -0.29172793
000100 fc d3 fe bc 0c 9e 35 be 94 09 c8 bd 9e 85 35 be
       -0.031106941 -0.17736071 -0.09767452 -0.17726752
000110 42 15 1a 3e db 24 05 be 24 12 77 bd 96 e6 8b be
       0.15047172 -0.1300234 -0.060320035 -0.2732436
000120 13 94 29 3e 0c 7e 9a be 73 5e e9 bd 06 35 1a 3e
       0.16560392 -0.3017429 -0.11394968 0.1505929
000130 a1 63 e7 bc 8a 63 cb be 86 38 d5 3d f2 52 2c 3e
       -0.028245749 -0.3972438 0.104111716 0.16828516
000140 f0 b9 95 bd fe c5 3e 3d fb 1c 30 3d ad cb f5 bc
       -0.073108554 0.04657554 0.042996388 -0.030004347
000150 0f bb 0c be 69 7c 2e 3e 91 ff d3 bc 7a 41 5b 3e
       -0.13743232 0.17039646 -0.0258787 0.21411696
000160 17 7e ad 3b 6d 89 6a bd 11 44 6a be 1b a9 0c 3e
       0.005294572 -0.057259966 -0.22877528 0.13736384
000170 d5 88 34 be 3b 94 81 be 20 a9 64 be 34 79 ce bd
       -0.17630322 -0.25308403 -0.22330141 -0.100817114
000180 c5 45 e9 3d 52 e6 de 3d f4 9d f9 3d 3c ee c2 bb
       0.113902606 0.10883774 0.1218833 -0.00594881
000190 9f e5 b5 bc a1 09 47 3c 29 b3 98 bd 34 28 8c 3d
       -0.022204218 0.012148292 -0.07456047 0.06843606
0001a0 95 ef 07 3e a2 61 e3 bd 9e 2c 97 bc ec bb 1f 3e
       0.13274987 -0.11102606 -0.018453892 0.1559903
0001b0 32 ad da bd 7a 58 64 be 2a da a5 bd 77 53 95 bd
       -0.10677566 -0.22299376 -0.08098252 -0.0729131
0001c0 f7 7c 8b bd cc 41 c2 bd 4c fa ed 3d 87 09 43 3d
       -0.068109445 -0.09485206 0.11620006 0.047616508
0001d0 6a 75 5f be d5 42 5d 3e 22 09 92 be c2 b8 f2 bd
       -0.21822134 0.21607526 -0.28522593 -0.11851646
0001e0 3b 30 b4 bc 25 21 25 3c 91 54 3b be d5 13 9f bd
       -0.021995654 0.010078703 -0.18293978 -0.077674545
0001f0 d3 24 ee 3d 8b 14 87 3e d0 49 12 be 77 c7 8b 3d
       0.116281174 0.2638286 -0.1428597 0.06825154
000200 8f 0e 5d be 57 e5 38 3e 2a c6 71 be 95 51 3c 3c
       -0.21587585 0.18056236 -0.2361075 0.01149406
000210 c6 87 76 3e 81 29 86 3e b1 6c ac 3d ac 00 b0 3d
       0.24075231 0.2620354 0.08419169 0.08593878
000220 1b 15 32 3e 83 29 68 3e f1 28 95 be ea c4 13 be
       0.17390864 0.22672085 -0.29132798 -0.14430586
000230 d1 b8 0b be cb d6 1b 3d 17 e8 f5 bd 65 3a c4 3d
       -0.1364472 0.03804664 -0.12007158 0.095814504
000240 c3 9e 14 3e d2 52 c5 bd bc 13 27 be 37 30 cf 3d
       0.14513688 -0.09634937 -0.16316122 0.10116618
000250 3d 42 81 3d ae 67 c9 be 74 b8 af bd 40 45 a9 be
       0.06311462 -0.39336914 -0.085801035 -0.33060646
000260 f7 95 65 be ff 9d 57 bc aa 36 15 bd ad d0 13 be
       -0.22420488 -0.013160228 -0.036429085 -0.14435072
000270 db 48 2d 3e a4 3c d9 bd 9d dc 25 be 58 ec 6c 3e
       0.16922323 -0.106072694 -0.16197439 0.23137033
000280 5f 36 89 3d 9c 52 4e 3e d3 14 29 3c d4 23 cd 3c
       0.066998236 0.201487 0.010319906 0.025041498
000290 b4 96 22 3e d7 ae 49 be 21 30 a6 3e e9 c1 d8 3c
       0.15877801 -0.19695602 0.32458594 0.026459651
0002a0 74 f1 c1 3d bc a4 5f 3e b4 85 7a 3d 5d 9e 3a be
       0.09469882 0.21840185 0.061162665 -0.18224473
0002b0 bd 10 52 be 9a 46 2e be 63 ac 86 bc 53 3b 15 3c
       -0.20514198 -0.1701912 -0.016439622 0.009108382
0002c0 0c 34 29 3d d3 db 47 bd 66 31 f4 bd 1a 3d 05 3e
       0.0413094 -0.048793625 -0.119234845 0.1301159
0002d0 76 eb 8e bd e7 79 fe bd b9 15 bc bd 7c fe ae 3d
       -0.06978504 -0.12425595 -0.09183831 0.08544633
0002e0 76 aa e5 bd 1b 4b 43 be 48 57 6e be 08 c7 0a 3e
       -0.112141535 -0.19071619 -0.23275483 0.13552487
0002f0 06 c0 ba 3d aa 88 82 3d 75 7e 1e 3d 22 88 d0 3d
       0.09118657 0.06373723 0.038694818 0.10182215
000300 40 32 06 3e 44 23 56 3e 08 c6 b3 bd d2 59 22 3e
       0.13105106 0.2091189 -0.08778006 0.15854576
000310 e0 3d 64 3d 25 f9 58 be e4 ad 91 be f8 34 99 be
       0.05572307 -0.21188791 -0.2845298 -0.29923224
000320 ee 04 f7 3b f7 38 38 3a c8 a3 7d bc 7f d8 7d be
       0.0075384295 0.00070275314 -0.015480943 -0.24789618
000330 09 31 8a be eb 56 1b be d9 b4 2d bd 2c 15 5d bd
       -0.26990536 -0.15169875 -0.042408798 -0.05397527
000340 1a 56 a0 bd 06 3c e8 bb c6 b2 4a be e8 da 1a bd
       -0.078289226 -0.0070872335 -0.19794759 -0.03780642
000350 31 99 12 3c dc 62 0d be cf 8d 95 3c fb 53 bf bd
       0.0089476565 -0.13807243 0.018256096 -0.0934219
000360 32 d1 01 bc 86 35 c1 3d cb 8c 80 bd 74 63 3b be
       -0.007923411 0.09434037 -0.06276854 -0.18299657
000370 48 d4 42 3e 22 f2 69 bd 17 a6 b2 3b be bd 07 be
       0.19026291 -0.05711568 0.0054519284 -0.13255975
000380 e7 6f d9 3d 89 13 cf bd 92 d5 21 be a0 df 16 be
       0.10617047 -0.10111148 -0.15804127 -0.14733744
000390 0c 75 27 3e a0 b3 a6 be e1 b8 00 be 84 62 c3 3c
       0.16353244 -0.32558918 -0.12570526 0.023850687
0003a0 2c 3a e1 bc ef 5e 12 bd 9a a7 54 bd ad a4 e9 bd
       -0.027493559 -0.035735067 -0.05191765 -0.114083625
0003b0 20 1e 5f bd 5a 90 74 bd 45 d4 3f 3d 7d ee 73 3d
       -0.05447209 -0.059707977 0.046833295 0.059553612
0003c0 ce a5 3d bd 1d 9e f4 bd 9f 66 52 be 9c d1 88 3e
       -0.0463007 -0.1194422 -0.2054696 0.2672242
0003d0 31 c3 37 be cf 65 bd 3e 9a 2e 68 bc b3 90 82 bd
       -0.17945553 0.36991736 -0.014171267 -0.063752554
0003e0 a4 ac 8e bc 57 79 e6 bd 92 16 86 be 3b bd b0 3e
       -0.017416306 -0.112536125 -0.26189095 0.3451937
0003f0 a1 a4 3d be bd 58 a8 3d 1b 77 f5 bd da e5 2e be
       -0.18519832 0.082200505 -0.11985608 -0.17079869

bias f4 [32]
000000 be 1d e9 bd 9f c9 c1 bd 87 c8 7e be 24 36 df bc
       -0.11382626 -0.09462284 -0.24881183 -0.027247496
000010 ed a6 5e be 22 0c fb bd 0e f3 3c bd 28 2c 37 be
       -0.21743365 -0.122581735 -0.046130233 -0.17887938
000020 99 88 f0 bd 2b e5 e8 3d 7c bd 88 be 9d b2 7e bd
       -0.11744804 0.11371835 -0.26707065 -0.062182058
000030 ec 66 63 be 64 83 7c bd 1d c0 29 be 77 ff a0 bd
       -0.2220723 -0.06164874 -0.16577192 -0.07861226
000040 51 32 d0 bc e3 b4 a2 bd e4 e2 1a be c3 e5 bd bd
       -0.025414618 -0.07944658 -0.15125614 -0.09272339
000050 f6 25 38 3d 17 48 b4 bd a9 e6 b5 bb 85 d9 01 3d
       0.044958077 -0.088028125 -0.0055511785 0.031701583
000060 94 f4 b7 bd f5 9d 7f bd 68 ba 65 be e6 53 c8 bd
       -0.089821965 -0.0624065 -0.2243439 -0.09781627
000070 44 8e 05 be 8e 5d 94 3d bd 4e 19 be 62 12 70 be
       -0.13042551 0.07244407 -0.14971443 -0.23444512

weight f4 [12, 32]
000000 31 41 c9 3c 8a c8 a6 3d ed 34 0d bd cc 6b 2c 3e
       0.024567218 0.081437185 -0.034474302 0.16837996
000010 14 b0 51 bd ce c3 c8 bc e4 3d 13 be 8b 8d 5f 3d
       -0.05119331 -0.02450743 -0.14379078 0.054578345
000020 5f 12 16 3e f4 4f 86 bc 93 27 30 bd 32 c3 75 3d
       0.14655446 -0.016395546 -0.04300649 0.060000606
000030 c4 56 0f bc c8 58 6c 3d 3b d1 70 3d 35 4e 13 3d
       -0.008748714 0.057701856 0.058793288 0.035963256
000040 07 cd 92 bd 4d 7c 1a bb d8 46 4f 3d eb 1f 30 3e
       -0.07168012 -0.0023572624 0.05060467 0.17199676
000050 64 61 80 3d 25 60 aa bd 7c 6b 80 be 72 d2 c3 3c
       0.06268576 -0.08319119 -0.25082004 0.02390406
000060 72 b3 57 bd b2 ee 90 bd 54 0f 06 3d 27 68 2c bc
       -0.052661367 -0.070767775 0.03272946 -0.010522879
000070 b9 e2 e9 3d 90 a1 86 bd 8a b5 38 be b0 a0 6a 3d
       0.11420197 -0.06573784 -0.18038002 0.05728215
000080 c5 75 95 3d 42 d1 b2 bd b2 61 88 3d 84 cd 49 3e
       0.072978534 -0.08731319 0.06659259 0.19707304
000090 a0 de 4e be 3c c4 89 bc 19 a7 1d bd 17 fb cf 3d
       -0.20202112 -0.016817205 -0.038489435 0.101553135
0000a0 59 82 9e 3c 40 e0 98 3d 1f 28 6a bd 45 5c b8 bd
       0.019349264 0.07464647 -0.05716717 -0.09001974
0000b0 4e 96 47 3d b0 7f 88 3e 31 1a 47 bd 4b 55 83 bc
       0.048727326 0.26659918 -0.048608962 -0.016031882
0000c0 08 05 a2 3d cb a9 1d be 44 20 95 bc 1e 23 39 3e
       0.07911116 -0.15396802 -0.018203862 0.18079802
0000d0 ea d4 4d bd eb 14 3a 3d 0a 53 0a 3e 7a 76 f0 3d
       -0.05025188 0.045430105 0.1350824 0.117413476
0000e0 2a d9 38 3e e0 37 37 3e f7 b1 ce 3d 95 79 33 be
       0.18051592 0.17892408 0.10092538 -0.17526849
0000f0 84 a0 47 bd b5 18 af 3d ec aa 88 bd 7f 4a f2 bd
       -0.048737064 0.08549634 -0.06673226 -0.11830615
000100 48 ff ad bd 62 d4 9f bd 5f e8 94 bd b0 ad 07 3e
       -0.08495957 -0.07804181 -0.07270884 0.1324985
000110 b7 0a 4e 3d 59 95 1e be ac 2b 83 3e e6 fd 1b bd
       0.050303187 -0.15486659 0.25619256 -0.038083933
000120 32 13 19 be e8 d8 bb bc f5 f6 fd 3d f3 a9 0e bc
       -0.14948729 -0.022930577 0.12400619 -0.008707511
000130 f3 89 db bd 9e c4 89 bd 61 98 60 3d 0d d7 b7 3c
       -0.10719671 -0.06726955 0.05483282 0.022441411
000140 5b 3f dd 3d 07 30 14 be 7e 65 ae bd f6 be 9b 3d
       0.108031 -0.14471446 -0.08515452 0.07604782
000150 66 b0 4e 3e 46 16 f1 3b 9e 5e 80 3d 86 94 ec 3d
       0.20184478 0.0073573915 0.06268047 0.11551766
000160 3c 9b 3c be 87 d2 85 3d b5 bd d2 3d be a5 5e 3d
       -0.18418592 0.065342955 0.1029009 0.054357283
000170 bf f5 4f 3e 23 6c 44 be 4f e7 95 bd 47 6b b6 3d
       0.20308588 -0.19181876 -0.07319509 0.0890718
000180 4f 86 1e bc 77 57 bb bd f0 7e 80 3d c5 18 5c 3d
       -0.009675576 -0.09147542 0.062742114 0.05373456
000190 7e a4 b6 bd e8 0b b4 3d 88 4f 42 3c 5b a9 f0 bc
       -0.08918093 0.087913334 0.011859782 -0.02937763
0001a0 d9 f2 d6 bd e2 85 10 3e 2d f9 87 bd c3 87 50 3e
       -0.10495538 0.14113572 -0.066393234 0.20364289
0001b0 78 32 ad bd ac 9d 17 be 97 3b 86 bd a8 bf 64 bd
       -0.08456892 -0.14806241 -0.065543346 -0.05584684
0001c0 bd 4c 61 bd 1c 4b c0 3b 9b 9f 2b 3e 39 2d db bc
       -0.055004824 0.0058683287 0.16760103 -0.026754962
0001d0 be ce 1c 3e 79 57 e7 3b 31 a8 91 3d 11 8b 9c 3d
       0.15313241 0.007059988 0.07112158 0.07643712
0001e0 26 32 ae 3b 8d 5e eb 3d a0 51 96 bd ea 41 88 bc
       0.0053160368 0.114926435 -0.073397875 -0.016632993
0001f0 81 ad bf 3c 80 b2 82 bd a4 c4 8e 39 48 36 fe bd
       0.023398163 -0.063817024 0.0002723086 -0.12412697
000200 72 8e 8e 3b 17 33 5a bd 08 04 0e be 5c d9 c8 bd
       0.004350477 -0.05327138 -0.13868725 -0.09807083
000210 1b e3 30 3e a1 40 82 3d 36 29 5a 3d 7e e1 e5 3d
       0.17274134 0.06359983 0.053261958 0.1122465
000220 a6 90 5c 3d a3 a2 87 3d d5 88 ca 3d cf 16 85 bd
       0.053848885 0.06622817 0.0988938 -0.06498491
000230 82 ee 57 3c 23 bd 9b bd fa 71 87 3d c7 cd 83 3d
       0.013179423 -0.07604434 0.06613536 0.06435733
000240 8e c9 86 be 83 b1 94 be 0c 9b 0f bd 33 fa c4 3d
       -0.2632565 -0.2904168 -0.035059974 0.09618034
000250 b8 b0 14 3e 02 af a8 3d db 25 53 bd 43 9e cc bc
       0.14520538 0.08236505 -0.051549774 -0.024977809
000260 9c 97 67 3e fc a8 72 bc 76 24 6a ba 14 eb 08 3e
       0.22616428 -0.014810797 -0.00089318247 0.13370925
000270 cb e7 05 be 6f b6 4f 3c e0 b5 c2 bd 38 5b b2 bd
       -0.13076703 0.012677773 -0.09507346 -0.08708805
000280 c9 ed 55 3e 33 1c c8 3c ff 60 4f 3e ca 51 ed 3d
       0.20891489 0.024427509 0.20251845 0.11587866
000290 d1 c2 89 3b 30 d4 9e bc 5c 94 80 bd 9d 43 dd 3d
       0.004204132 -0.019388288 -0.06278297 0.10803912
0002a0 e7 59 25 3d 12 ca f9 bd 77 78 06 be 77 32 e7 3d
       0.04036894 -0.12196745 -0.13131891 0.11288922
0002b0 07 7b 9e bc 22 c0 b5 3d 08 9a 9f 3b 88 dc b5 bd
       -0.019345773 0.08874537 0.004870657 -0.088799536
0002c0 46 8b d1 3d cd a9 f4 3d de f1 a0 3d 05 fd 8e be
       0.102316424 0.119464494 0.078586325 -0.27927414
0002d0 10 01 9f bd a3 2c cd 3d 6e f4 62 bd 1b 83 26 3e
       -0.077638745 0.100182794 -0.055408888 0.1626095
0002e0 61 49 a8 bd e2 76 71 bd 53 38 b0 bd 5b 31 c0 3e
       -0.08217121 -0.058951266 -0.08604493 0.37537655
0002f0 98 1c 13 bc 2d 7b 25 3e 73 1a fd bc 98 55 33 bd
       -0.008978985 0.16160269 -0.030896401 -0.0437828
000300 ac 3f 9a bc 1e 5d 80 bd 8b 94 f6 3b 81 dc 32 be
       -0.01882919 -0.06267761 0.007525032 -0.17466928
000310 7d c9 c8 bd 1c dc 30 3d 49 ac 5a 3d 06 4d 91 3d
       -0.09804056 0.043178663 0.05338696 0.07094769
000320 74 61 85 3d 74 a9 66 3c c8 b0 5f bd ab 46 8f 3d
       0.06512728 0.014078487 -0.05461195 0.06995901
000330 d0 cb bd bd b1 3f 50 bc 01 ba a3 bd f4 bc a2 bc
       -0.0926739 -0.012710498 -0.07994462 -0.01986549
000340 35 79 9f bd 39 ad 4c 3d 10 12 38 be 59 9d 0b 3e
       -0.0778679 0.049969885 -0.1797564 0.13634242
000350 32 05 4b bc 6f 25 e3 bc d2 fc 74 3d 45 b8 33 bd
       -0.012391375 -0.02772781 0.05981142 -0.043876905
000360 af b3 26 3d 36 c1 17 3e 91 a0 33 be 27 d5 fa 3d
       0.040698703 0.14819798 -0.1754172 0.12247687
000370 ee e3 94 3d 3a 57 27 be e8 cf d1 3d cb a1 02 bd
       0.07270037 -0.16341868 0.10244733 -0.03189258
000380 5b 55 3a 3d af b9 95 bd 23 03 a8 bc d5 85 5f be
       0.045491558 -0.07310807 -0.020509308 -0.21828397
000390 1e 38 c1 3d 95 17 e4 3d ac 3a cc 3c 2b 08 11 3e
       0.09434532 0.111373104 0.02493032 0.14163272
0003a0 dc 63 62 3d 09 ce 08 3e c1 98 91 bc bf 6a 24 3d
       0.055271015 0.13359846 -0.017773034 0.040140864
0003b0 fc 57 b8 3d c2 6f 44 bc 83 11 98 bd e7 0e 76 be
       0.09001157 -0.011989536 -0.07425215 -0.24029122
0003c0 6f 62 50 3c ed a5 f5 bd 66 ac ce bd f6 d4 a8 3d
       0.012718781 -0.119945385 -0.10091476 0.08243744
0003d0 f3 06 9e bc a8 99 0c be ca 71 5e bd 17 83 06 3e
       -0.019290423 -0.1373049 -0.054307736 0.13135944
0003e0 9e 1d d3 bc 1b f6 14 be c9 95 da 3d 79 81 66 bd
       -0.025770959 -0.14547007 0.106731005 -0.05627582
0003f0 35 6a 28 bd 24 aa 3a 3d 92 40 3d bb f3 53 09 3e
       -0.041116912 0.045572415 -0.0028877598 0.1341093

bias f4 [12]
000000 f2 12 3c bb 71 4e 90 3d d8 5d 35 3e 90 c6 83 3e
       -0.0028697816 0.070462115 0.1771158 0.2573743
000010 e3 8e 83 be cc 59 fa bd 52 88 3d be 93 e1 5e be
       -0.2569495 -0.12224159 -0.18509033 -0.21765737
000020 18 c4 83 bd c5 75 cf 3d a7 cd a0 3d f2 62 53 bc
       -0.06433886 0.10129885 0.07851725 -0.012902008
